…
        "outputId": "b8209fe8-b34c-48d0-e554-13e7f524372e",
        "colab": {
          "base_uri": "https://localhost:8080/",
          "height": 1074
        }
      },
      "source": [
        "loaded_model_low_accuracy.summary()"
      ],
      "execution_count": 32,
      "outputs": [
        {
          "output_type": "stream",
          "text": [
            "_________________________________________________________________\n",
            "Layer (type)                 Output Shape              Param #   \n",
            "=================================================================\n",
            "input_1 (InputLayer)         (None, 32, 32, 3)         0         \n",
            "_________________________________________________________________\n",
            "conv1_1 (Conv2D)             (None, 32, 32, 64)        1792      \n",
            "_________________________________________________________________\n",
            "conv1_2 (BatchNormalization) (None, 32, 32, 64)        256       \n",
            "_________________________________________________________________\n",
            "pool1_3 (MaxPooling2D)       (None, 16, 16, 64)        0         \n",
            "_________________________________________________________________\n",
            "conv2_1 (Conv2D)             (None, 16, 16, 128)       73856     \n",
            "_________________________________________________________________\n",
            "conv2_2 (BatchNormalization) (None, 16, 16, 128)       512       \n",
            "_________________________________________________________________\n",
            "pool2_3 (MaxPooling2D)       (None, 8, 8, 128)         0         \n",
            "_________________________________________________________________\n",
            "conv3_1 (Conv2D)             (None, 8, 8, 256)         295168    \n",
            "_________________________________________________________________\n",
            "conv3_2 (BatchNormalization) (None, 8, 8, 256)         1024      \n",
            "_________________________________________________________________\n",
            "conv4_1 (Conv2D)             (None, 8, 8, 256)         590080    \n",
            "_________________________________________________________________\n",
            "conv4_2 (BatchNormalization) (None, 8, 8, 256)         1024      \n",
            "_________________________________________________________________\n",
            "pool4_2 (MaxPooling2D)       (None, 4, 4, 256)         0         \n",
            "_________________________________________________________________\n",
            "conv5_1 (Conv2D)             (None, 4, 4, 512)         1180160   \n",
            "_________________________________________________________________\n",
            "conv5_2 (BatchNormalization) (None, 4, 4, 512)         2048      \n",
            "_________________________________________________________________\n",
            "conv6_1 (Conv2D)             (None, 4, 4, 512)         2359808   \n",
            "_________________________________________________________________\n",
            "conv6_2 (BatchNormalization) (None, 4, 4, 512)         2048      \n",
            "_________________________________________________________________\n",
            "pool6_2 (MaxPooling2D)       (None, 2, 2, 512)         0         \n",
            "_________________________________________________________________\n",
            "conv7_1 (Conv2D)             (None, 2, 2, 512)         2359808   \n",
            "_________________________________________________________________\n",
            "conv7_2 (BatchNormalization) (None, 2, 2, 512)         2048      \n",
            "_________________________________________________________________\n",
            "conv8_1 (Conv2D)             (None, 2, 2, 512)         2359808   \n",
            "_________________________________________________________________\n",
            "conv8_2 (BatchNormalization) (None, 2, 2, 512)         2048      \n",
            "_________________________________________________________________\n",
            "pool8_2 (MaxPooling2D)       (None, 1, 1, 512)         0         \n",
            "_________________________________________________________________\n",
            "flatten_1 (Flatten)          (None, 512)               0         \n",
            "_________________________________________________________________\n",
            "fc1 (Dense)                  (None, 4096)              2101248   \n",
            "_________________________________________________________________\n",
            "fc2 (Dense)                  (None, 4096)              16781312  \n",
            "_________________________________________________________________\n",
            "fc3 (Dense)                  (None, 1000)              4097000   \n",
            "_________________________________________________________________\n",
            "out (Dense)                  (None, 3)                 3003      \n",
            "=================================================================\n",
            "Total params: 32,214,051\n",
            "Trainable params: 32,208,547\n",
            "Non-trainable params: 5,504\n",
            "_________________________________________________________________\n"
          ],
          "name": "stdout"
        }
      ]
    },
    {
      "cell_type": "markdown",
…
        "# model.compile(loss='categorical_crossentropy', optimizer=opt_rms, metrics=['accuracy'])\n",
        "\n",
        "prunedModel.compile(loss=losses.categorical_crossentropy, optimizer=opt_rms, metrics=['accuracy'])\n",
        "\n",
        "prunedModel.summary()"
      ],
      "execution_count": 53,
      "outputs": [
        {
          "output_type": "stream",
          "text": [
            "_________________________________________________________________\n",
            "Layer (type)                 Output Shape              Param #   \n",
            "=================================================================\n",
            "input_1 (InputLayer)         (None, 32, 32, 3)         0         \n",
            "_________________________________________________________________\n",
            "conv1_1 (Conv2D)             (None, 32, 32, 64)        1792      \n",
            "_________________________________________________________________\n",
            "conv1_2 (BatchNormalization) (None, 32, 32, 64)        256       \n",
            "_________________________________________________________________\n",
            "pool1_3 (MaxPooling2D)       (None, 16, 16, 64)        0         \n",
            "_________________________________________________________________\n",
            "conv2_1 (Conv2D)             (None, 16, 16, 128)       73856     \n",
            "_________________________________________________________________\n",
            "conv2_2 (BatchNormalization) (None, 16, 16, 128)       512       \n",
            "_________________________________________________________________\n",
            "pool2_3 (MaxPooling2D)       (None, 8, 8, 128)         0         \n",
            "_________________________________________________________________\n",
            "conv3_1 (Conv2D)             (None, 8, 8, 256)         295168    \n",
            "_________________________________________________________________\n",
            "conv3_2 (BatchNormalization) (None, 8, 8, 256)         1024      \n",
            "_________________________________________________________________\n",
            "conv4_1 (Conv2D)             (None, 8, 8, 256)         590080    \n",
            "_________________________________________________________________\n",
            "conv4_2 (BatchNormalization) (None, 8, 8, 256)         1024      \n",
            "_________________________________________________________________\n",
            "pool4_2 (MaxPooling2D)       (None, 4, 4, 256)         0         \n",
            "_________________________________________________________________\n",
            "conv5_1 (Conv2D)             (None, 4, 4, 512)         1180160   \n",
            "_________________________________________________________________\n",
            "conv5_2 (BatchNormalization) (None, 4, 4, 512)         2048      \n",
            "_________________________________________________________________\n",
            "conv6_1 (Conv2D)             (None, 4, 4, 512)         2359808   \n",
            "_________________________________________________________________\n",
            "conv6_2 (BatchNormalization) (None, 4, 4, 512)         2048      \n",
            "_________________________________________________________________\n",
            "pool6_2 (MaxPooling2D)       (None, 2, 2, 512)         0         \n",
            "_________________________________________________________________\n",
            "conv7_1 (Conv2D)             (None, 2, 2, 512)         2359808   \n",
            "_________________________________________________________________\n",
            "conv7_2 (BatchNormalization) (None, 2, 2, 512)         2048      \n",
            "_________________________________________________________________\n",
            "conv8_1 (Conv2D)             (None, 2, 2, 256)         1179904   \n",
            "_________________________________________________________________\n",
            "conv8_2 (BatchNormalization) (None, 2, 2, 256)         1024      \n",
            "_________________________________________________________________\n",
            "pool8_2 (MaxPooling2D)       (None, 1, 1, 256)         0         \n",
            "_________________________________________________________________\n",
            "flatten_1 (Flatten)          (None, 256)               0         \n",
            "_________________________________________________________________\n",
            "fc1 (Dense)                  (None, 4096)              1052672   \n",
            "_________________________________________________________________\n",
            "fc2 (Dense)                  (None, 4096)              16781312  \n",
            "_________________________________________________________________\n",
            "fc3 (Dense)                  (None, 1000)              4097000   \n",
            "_________________________________________________________________\n",
            "out (Dense)                  (None, 3)                 3003      \n",
            "=================================================================\n",
            "Total params: 29,984,547\n",
            "Trainable params: 29,979,555\n",
            "Non-trainable params: 4,992\n",
            "_________________________________________________________________\n"
          ],
          "name": "stdout"
        }
      ]
    },
    {
      "cell_type": "code",
…
        "outputId": "5ba31b93-776d-4b0a-87ca-a773a09b26d7",
        "colab": {
          "base_uri": "https://localhost:8080/",
          "height": 917
        }
      },
      "source": [
        "modelFilt.summary()"
      ],
      "execution_count": 0,
      "outputs": [
        {
          "output_type": "stream",
          "text": [
            "_________________________________________________________________\n",
            "Layer (type)                 Output Shape              Param #   \n",
            "=================================================================\n",
            "input_1 (InputLayer)         (None, 32, 32, 3)         0         \n",
            "_________________________________________________________________\n",
            "lowAccuracyModelConv1_1 (Con (None, 32, 32, 32)        896       \n",
            "_________________________________________________________________\n",
            "lowAccuracyModelBN1 (BatchNo (None, 32, 32, 32)        128       \n",
            "_________________________________________________________________\n",
            "lowAccuracyModelConv2_1 (Con (None, 32, 32, 32)        9248      \n",
            "_________________________________________________________________\n",
            "batch_normalization_1 (Batch (None, 32, 32, 32)        128       \n",
            "_________________________________________________________________\n",
            "max_pooling2d_1 (MaxPooling2 (None, 16, 16, 32)        0         \n",
            "_________________________________________________________________\n",
            "dropout_1 (Dropout)          (None, 16, 16, 32)        0         \n",
            "_________________________________________________________________\n",
            "conv2d_1 (Conv2D)            (None, 16, 16, 64)        18496     \n",
            "_________________________________________________________________\n",
            "batch_normalization_2 (Batch (None, 16, 16, 64)        256       \n",
            "_________________________________________________________________\n",
            "conv2d_2 (Conv2D)            (None, 16, 16, 64)        36928     \n",
            "_________________________________________________________________\n",
            "batch_normalization_3 (Batch (None, 16, 16, 64)        256       \n",
            "_________________________________________________________________\n",
            "max_pooling2d_2 (MaxPooling2 (None, 8, 8, 64)          0         \n",
            "_________________________________________________________________\n",
            "dropout_2 (Dropout)          (None, 8, 8, 64)          0         \n",
            "_________________________________________________________________\n",
            "conv2d_3 (Conv2D)            (None, 8, 8, 128)         73856     \n",
            "_________________________________________________________________\n",
            "batch_normalization_4 (Batch (None, 8, 8, 128)         512       \n",
            "_________________________________________________________________\n",
            "conv2d_4 (Conv2D)            (None, 8, 8, 128)         147584    \n",
            "_________________________________________________________________\n",
            "batch_normalization_5 (Batch (None, 8, 8, 128)         512       \n",
            "_________________________________________________________________\n",
            "max_pooling2d_3 (MaxPooling2 (None, 4, 4, 128)         0         \n",
            "_________________________________________________________________\n",
            "dropout_3 (Dropout)          (None, 4, 4, 128)         0         \n",
            "_________________________________________________________________\n",
            "flatten_1 (Flatten)          (None, 2048)              0         \n",
            "_________________________________________________________________\n",
            "dense_1 (Dense)              (None, 3)                 6147      \n",
            "=================================================================\n",
            "Total params: 294,947\n",
            "Trainable params: 294,051\n",
            "Non-trainable params: 896\n",
            "_________________________________________________________________\n"
          ],
          "name": "stdout"
        }
      ]
    },
    {
      "cell_type": "markdown",
…
